models/bnn/nba_bnn_weights_only.pt (torch, 627057 bytes, 54 tensors)

temp_vector f4 [6]
00000000: 0000 a040 0000 b040 3333 a340 9a99 1141
00000010: cdcc dc40 0000 9040
5.0 5.5 5.1 9.1 6.9 4.5

embeddings.0.weight f4 [297, 17]
00000000: 4e4f 033f a447 4b3e 9ea1 923b 51f0 28bf
00000010: 8a8e 5938 f1b8 95bd 3ea1 6b00 6df3 8bbe
00000020: f935 b6b9 1261 9b3e 2d6e 39aa 198a 1abe
00000030: fc12 4fb9 97b3 fbb4 2d8f 02ba 8321 e439
00000040: 861a 993e 2c2e 6e3d 9725 213d 8342 fb3c
00000050: e2e7 05bd 0e83 9d3d de3e 893d 73e5 cc3e
00000060: 445c 9c3d bf05 c13d 7948 723d 63a1 5c3e
00000070: 091d 2f3d 591f 903c 10ef 3fbc 106f 0c3d
00000080: f484 1cbe 1bea 1ebe 09c6 cebc 5f91 df3e
00000090: 532a 383c de12 69bd c259 7b3c 544f 1a3c
000000a0: 607c 98be b95e 3f3c 4842 0bbd 6fc5 e13c
000000b0: 6d09 17be e9a5 313f 454d 4dbe aad8 6d3c
000000c0: 2ceb 66bd 8a5b 253d 01fe 02bd 9ad9 343d
000000d0: 417b 3e3b 0940 b13d 0b37 9fbc dd51 62bc
000000e0: 4a9c 1cbe 6c31 9e3b c6d7 b7bb 98db 413c
000000f0: b4ae c1bb 4e07 f33e 4474 0fbe 5989 823e
00000100: 8e92 353e 940f 6c3d 3861 443f 2b28 f3bc
00000110: c114 b4bd d2d4 e1bb bdfe 32be abda 193e
00000120: b6d7 d23b d71a 01bd 25cb 7abd 793f fe3c
00000130: 93d9 133d 5f21 983b cc8a 4ebf e06f 123d
00000140: 686d b9bd d2e2 8c3c 606d 88be e2ad 4d3c
00000150: 4c34 f93d 47d2 973d 08de 943d 0cc6 403b
00000160: 2f03 8e3d eff7 4ebc 6216 2fbd cc1a 0c3c
00000170: 6c2b c6be f017 813c a6f8 0f3e 2c44 e93c
00000180: 4762 85bf f466 743d e99c 2ebc d4ed 3d3d
00000190: 3bca f7bc 91af 4a3a c374 663d ad5c 0fbd
000001a0: 367e 45bd 015a 50bc 6fa5 61bb 6818 31bd
000001b0: e0ce 1fbd 9aab 493e 8209 b63c 1d18 fbbb
000001c0: defd 7ebe ce38 653c 3495 bcbd 2d39 a93c
000001d0: ff34 20bd 8098 f63b 4872 9b3d 1fb8 a7bb
000001e0: e816 f23c 55df 153b 8b2b 73bd 7308 183d
000001f0: 1545 ba3d 4eba c63c 0deb 0fbb 8012 ecbc
00000200: 8c7d 0b3f df8a 9e3d d55b 4dbe b155 ffbd
00000210: 14f1 0b3b 815b a13e a2c7 c93c 24fb 1b3c
00000220: 7136 ee3d bd37 a3bc e3f9 e7be d101 7a3d
00000230: 6e33 493c 541e 113d 755b 7c3c ca07 503c
00000240: e60f b2bc 9cad 0c3d efcd a63e 894c 4c3e
00000250: b22e c63c 2fe2 37bc bcbd b23a f98d 183c
00000260: 00ee c5ba 55cd cb3d 1fa1 85bc 6c3c 953e
00000270: 8694 84bf 8732 4fbc a8cb 92bd 706c 0b3d
00000280: 7ce6 00bf 2dbb 0f3c 3d1c 78bc bd1d bc3b
00000290: 8ffa 28bc 8aab d43b 3266 a33b b259 4fbd
000002a0: 3feb 95be 2809 3b3e 61e8 763e bd2e 343d
000002b0: 00d1 9fbe ff27 f33c 5548 0abc ed67 1b3f
000002c0: 5b51 f7bc 3acc c93b b06b 90bc 7f51 793b
000002d0: 8922 58bd c008 afbe 4d7b 23be e29d 9ebb
000002e0: 3367 a4bc 8fe8 7abe 26b2 21bf 7c75 02bd
000002f0: 54fe a13d c5cc 0e3a 6f5a 98bc 2a10 f63a
00000300: f708 ce3e f295 11bd 2531 8b3c 75f0 a93c
00000310: 1d5f 9bbd d2a4 e1bc 0d6c 563d 44d2 333e
00000320: 9876 6a3c 8cd2 2d3f 5101 c83c 7a3b d4bc
00000330: 94d1 213d 4500 da3d a3c1 493e 4dd7 1b3d
00000340: aeda 02bc 9db3 19bd 0e79 67bc e5c8 1bbc
00000350: 8280 c8bb 179e aa3b 7da9 e63c ae49 61bf
00000360: aa53 983c 13e5 503d 1006 e5be 3cd8 883e
00000370: 22eb 00bd 8f6c 5e3d 332b 1c3d b593 c03e
00000380: bd59 8e3d 65a3 a13e 4368 dd3b dc4c 1dbd
00000390: 623e 27bc f3e8 a43b f735 d7bc 3f6e 1a3f
000003a0: 19db 23bd caae db3c 333a 1dbf 9e3e 4bbc
000003b0: 78a1 33bd 051e 11bc 136c 8a3c 80a6 ffbb
000003c0: 70d0 0abc ac02 d93c a405 ffbb 5359 44bb
000003d0: 8614 0fbc ac80 63bb 622f 363b df1b 433e
000003e0: d745 d03d 319f 94bc 2165 2c3d 2a1d 42b9
000003f0: ea23 2c3b 9a69 92ba 1d9e 11bc 7fe0 c6bd
0.51292884 0.19851547 0.0044748327 -0.65991694 5.186958e-05 -0.073106654 9.884241e-39 -0.27334157
-0.00034753958 0.30347496 -1.6469526e-13 -0.15091743 -0.0001974813 -4.6883062e-07 -0.00049804413 0.00043512517
0.29903048 0.0581495 0.03934249 0.030671364 -0.032691844 0.07691012 0.06701444 0.40018806
0.07634786 0.09424924 0.059151147 0.21545939 0.0427523 0.017593073 -0.011714712 0.034285605
-0.15285093 -0.15518992 -0.025240915 0.43665597 0.01124056 -0.05690276 0.015341224 0.009418327
-0.2978239 0.0116802985 -0.033998758 0.027559964 -0.1474969 0.69393784 -0.20049007 0.014516989
-0.05637662 0.0403705 -0.03198052 0.044152834 0.0029065164 0.08654792 -0.019435426 -0.013813463
-0.15293995 0.004827669 -0.005610439 0.01183214 -0.005910719 0.4746651 -0.14009196 0.25495413
0.17731687 0.057632044 0.76710844 -0.02968224 -0.08793021 -0.0068918252 -0.17479987 0.15024821
0.006434406 -0.031519737 -0.06122889 0.031036125 0.036096167 0.00464265 -0.8068054 0.035751224
-0.09054071 0.017198 -0.26645947 0.012553664 0.12168178 0.07413154 0.072689116 0.002941492
0.06934201 -0.012632354 -0.042745955 0.008551311 -0.38705003 0.015758485 0.14059696 0.02847489
-1.0420617 0.059668496 -0.0106575275 0.04636939 -0.030247798 0.000773185 0.056263696 -0.035000492
-0.048216067 -0.012716771 -0.0034430881 -0.043236166 -0.03901565 0.19694367 0.02222133 -0.0076627866
-0.2490153 0.013990594 -0.09208146 0.020657146 -0.03911304 0.0075255036 0.07590157 -0.0051183845
0.029551938 0.0022868712 -0.059367698 0.037117433 0.090952076 0.024258759 -0.002196017 -0.028817415
0.54488444 0.07741331 -0.20054562 -0.12467516 0.002135341 0.31515124 0.024631325 0.009520326
0.116314776 -0.019924039 -0.45307836 0.06103689 0.012280328 0.035429314 0.015402664 0.01269717
-0.021736097 0.034345254 0.3257899 0.19951071 0.024192188 -0.01122336 0.0013636868 0.009311193
-0.0015100837 0.09951273 -0.01631218 0.2914766 -1.0357826 -0.012646324 -0.071677506 0.03403896
-0.5035169 0.0087726535 -0.015143451 0.0057408498 -0.010313644 0.0064901756 0.004986548 -0.05062265
-0.2928104 0.18265212 0.24112083 0.043989886 -0.31214142 0.029682158 -0.008440097 0.60705453
-0.03019016 0.006158379 -0.017629474 0.003804296 -0.05276731 -0.34186363 -0.15965004 -0.0048405984
-0.02006874 -0.24502777 -0.6316246 -0.031850323 0.07909837 0.0005447383 -0.01859781 0.0018773128
0.40241215 -0.03554339 0.016991207 0.020744542 -0.07586501 -0.027544413 0.05234914 0.17560679
0.0143105015 0.67899394 0.02441469 -0.025907267 0.03950651 0.10644583 0.19702773 0.038047124
-0.007986708 -0.03752481 -0.014127983 -0.009508346 -0.006118835 0.005206834 0.02815699 -0.8800305
0.018594582 0.050999712 -0.44731188 0.26727474 -0.03147424 0.05430275 0.038127135 0.37612692
0.0695071 0.31569973 0.0067568137 -0.038403377 -0.010207744 0.0050326525 -0.02627085 0.6032447
-0.04000387 0.026816744 -0.6141693 -0.012405066 -0.04385516 -0.008857255 0.016897237 -0.007801831
-0.008472547 0.026490532 -0.007782655 -0.0029960468 -0.0087329205 -0.0034714146 0.0027799238 0.190536
0.10169571 -0.018142315 0.04208863 -0.00018512146 0.0026266524 -0.0011170388 -0.008887795 -0.09710788

embeddings.1.weight f4 [31, 5]
00000000: fb3d 4eb7 7eb1 f1bd 0733 98ba e129 623e
00000010: 40c8 cb3b ac73 1f3c be57 74bd ca22 a0be
00000020: ecf5 89be 1564 c7bd f745 a43d bbcc 90be
00000030: eb36 8fbe 6ac6 78be 9935 113e 1dc4 07bd
00000040: 14dd 803d d304 15bd 831e 0e3e 89b6 d03e
00000050: 8d24 e0bc 49f9 babc f9f4 023f 523e 6f3d
00000060: abe9 0ebd 2fc2 973b 9cd1 113e 963b cabd
00000070: 6abe 80be 0bc2 473e c909 0fbd afdd d23e
00000080: ec41 9a3c b963 10bf 651e 52be 3a35 96bc
00000090: bfae 8cbe 4649 85be aa44 523e 6cd1 cb3d
000000a0: c1ac cabd de21 74be fa81 41bd 79f4 cabd
000000b0: 7222 9fbd 8182 26be 5130 f6be e4de 81bf
000000c0: 5666 d13e 0c85 bb3e 11ea 15be 3fa6 493e
000000d0: afa2 2e3e 54f3 a73d 8232 eb3c 4905 0b3d
000000e0: 8716 c73c d906 e1bc 9b54 153e 1e4e b4be
000000f0: 457e 263f 194a 01bd ac6d 92be 6ebd 233d
00000100: aff0 c63e 3b94 073d 1b1a a3bd 034c 1ebe
00000110: d85f 673e 373f 743f fc1b 08be edf2 a33c
00000120: c83a e0be 8580 98bd b691 86bc 4f97 38be
00000130: 849f 083c a03f e43c 4412 efbe 53d1 0f3f
00000140: 1286 2ebd 9ee9 9abf 3d22 0c3f b344 26bf
00000150: 3c40 babe 8339 653e 8955 c8bd de37 fbbe
00000160: 2aa5 273d 0e7c 26be 1527 b9bb 34fa 94be
00000170: 9524 f5bc db0e 77bf 3a98 0f3e 13fe ef3c
00000180: 7ffa 13bd 4a76 f13e 8dba fa3d c3d7 d4be
00000190: 6d45 3b3f 92bd ec3d 0659 acbd 6db4 a73f
000001a0: e211 263e 21d8 33bd 56df 27bd b5fa d93e
000001b0: 3a5b db3e 8b53 88bd 3221 4fbe ef33 98be
000001c0: e2db 16bc 9a46 b03e 7cee 5fbe 6d71 1dbe
000001d0: a781 143d 09ef 49bf c6f1 b5bd bf76 a8be
000001e0: 7a07 523e 1dea bf3e 63f3 3abe 7a3a ddbb
000001f0: f7f9 e2be d0aa 803d b988 893c 453b 0e3e
00000200: 9ac7 b5bd c94f fb3d 279d a2be 55f5 43be
00000210: f055 3d3f e4ae dabd d100 35be b444 063e
00000220: 692f febe 1168 5fbd dcff b5bd 81af 733f
00000230: 2909 823c 8268 853f cb99 0d3d d86d 87bd
00000240: 5569 16bd c04c 1b3d 4cb1 013d 0ce8 073e
00000250: 2baf 083e 8a66 283f 6881 e3bd f5bf 023d
00000260: 90f5 0d3f 363a 0f3f 020a 55be
-1.2292988e-05 -0.11801432 -0.0011611887 0.22086288 0.00621894 0.009732168 -0.05965399 -0.31276542
-0.26945436 -0.09735886 0.08021157 -0.28281197 -0.27971587 -0.24294439 0.14180602 -0.033146013
0.06292167 -0.036381554 0.13878827 0.40764263 -0.027361179 -0.022823947 0.5115505 0.058409043
-0.034890812 0.004631303 0.14240116 -0.09874646 -0.25145274 0.19507615 -0.03492144 0.41184756
0.018830262 -0.56402165 -0.20519407 -0.018335927 -0.2747707 -0.26032466 0.20534006 0.099520534
-0.098962314 -0.23841044 -0.047243096 -0.09909911 -0.07770242 -0.16260721 -0.48083737 -1.0146146
0.4089839 0.36624944 -0.1464007 0.19692324 0.17054246 0.08200708 0.028710607 0.033940587
0.024302734 -0.027469086 0.14583056 -0.3521585 0.6503642 -0.031564806 -0.28599298 0.039975576
0.38855502 0.033100348 -0.079639636 -0.15458684 0.22595155 0.9540896 -0.13291925 0.020013297
-0.43794847 -0.07446388 -0.016426902 -0.1802647 0.008338813 0.02786237 -0.46693623 0.5617878
-0.04260833 -1.2102544 0.54739743 -0.64948577 -0.36377132 0.2238522 -0.097819395 -0.4906606
0.040928997 -0.1625826 -0.005650411 -0.2909714 -0.02992467 -0.9650704 0.14022914 0.029295957
-0.036127564 0.4716056 0.12242613 -0.41570863 0.7315281 0.11559595 -0.084154174 1.3101937
0.16217759 -0.04390729 -0.040984474 0.42574087 0.42843038 -0.066565596 -0.20227507 -0.29727122
-0.009207698 0.34428865 -0.21868318 -0.153753 0.03625646 -0.78880364 -0.08884005 -0.32903096
0.20510665 0.37483302 -0.18256907 -0.0067513557 -0.44331333 0.0628258 0.016788827 0.13889797
-0.088759616 0.12271077 -0.31760523 -0.19136555 0.73959255 -0.10677889 -0.17676093 0.13112146
-0.49645546 -0.054542605 -0.08886692 0.9518967 0.015873509 1.0422518 0.034570497 -0.06612748
-0.036721546 0.03791499 0.031663224 0.13272113 0.13348071 0.6578146 -0.11108667 0.031921346
0.55452824 0.559482 -0.20804599

embeddings.2.weight f4 [31, 5]
00000000: 9c25 623e 5b76 cb3d 01b9 ec37 6bb6 b3ba
00000010: 5c65 37bf 2c17 b63d 67e2 22be 4d06 ab3e
00000020: 72d2 8bbd 658e 8e3e c391 79bd 0387 50bd
00000030: e92b 03bf 9ea9 afbd 5448 fbbd 68f0 40be
00000040: 3eed 6d3f 271b 9f3e b082 b03e 8d94 123f
00000050: 87ce 503e 362e 96be 9840 1b3e ad4e b1bc
00000060: 77a1 ddbc 45f6 b33e 83bf 363f e1d0 793e
00000070: c7c7 903d 70bb bdbd 0ed8 34be 59c8 003e
00000080: a677 ddbe 9d53 bc3d bf01 5a3e 343b 6bbe
00000090: 738d 443e e46a 12bd caad 583f 77c8 e6bd
000000a0: a856 00be b9df ad3e 119f 19bf 6615 afbe
000000b0: 4f70 a53d b76c 02be 44a7 72be 2d92 e7bd
000000c0: 9019 ffbd 4e71 40bd c392 213f 6476 98be
000000d0: 72ad 85bd aa19 af3e 9ba1 cdbd 3090 80be
000000e0: 4eba a1be 39df 5bbd 2e69 3c3e 8b15 a0be
000000f0: 9c24 53be dd55 19bf d71a 4e3e 7d8c e23d
00000100: 0b2f 4ebe b409 64be f54f c13d d494 9dbe
00000110: 1ecd a5be 63f5 c4be 1bc5 11bd 5203 7c3d
00000120: f8e2 c63d fe2d fbbd 8874 23be 6c7c bb3e
00000130: bdc1 7cbd 36c9 193e 7021 b7be a376 6d3f
00000140: ecd5 b9bd 96a9 363e 1f6c b0be efb5 1c3f
00000150: 617d 19bf 3bf2 2f3d a0aa 67bd 6882 3c3f
00000160: 752d 963e 53ec 16be 3b24 6fbd 69ca a03d
00000170: cd0b a8be 277d 5a3c 5a97 f7bd 6ed6 6a3d
00000180: 0f87 8e3f 90fd 20be 3825 933e dc55 81bb
00000190: 00cd acbe b1ce fc3e a288 263f 7d2c 803e
000001a0: 43de c33e 6b7f d83e a30b 9f3e 1ab3 363e
000001b0: c4df efbe 8fe1 44be 3a6c 463d 6c74 753e
000001c0: 462e 5ebf 07d1 d5bc c752 753e 4f98 82bd
000001d0: e0f7 48bc bb20 11bf 38d8 0b3f 59ae b43e
000001e0: e841 dfbd 6f8a 3e3f f2b5 9c3d 0d58 313d
000001f0: fe01 0ebe 99d0 24be 43be f5be a9b3 d93e
00000200: 0151 ee3d 1361 213f e66a 89bc df3d 413e
00000210: 409d 69bc fde6 bbbe c9d4 83bf d01f 8ebe
00000220: 31f6 00bf ebae 97be 86a0 f83c 173b 8ebe
00000230: 0a4b 6cbe c1d0 9fbd 12a0 dc3e 89bf 92be
00000240: e6da e13d 5cb6 da3a 177a c2be 160c 323f
00000250: 2680 10bc 4a3e 83bd 2bea dbbe faf6 e4bd
00000260: be1b 753e 856d 973d 98fa d93e
0.2208466 0.09934684 2.8219541e-05 -0.0013710981 -0.7163904 0.088911384 -0.15906678 0.33403245
-0.06827249 0.27843013 -0.060930025 -0.050910007 -0.51238877 -0.08577274 -0.12269655 -0.18841708
0.9294013 0.31075403 0.34474707 0.5725792 0.20391284 -0.2933213 0.1516136 -0.02164396
-0.027054531 0.35148826 0.71385974 0.24396087 0.070693545 -0.092642665 -0.17660543 0.12576427
-0.43255347 0.091956355 0.21289729 -0.22971803 0.19194584 -0.03574647 0.8464018 -0.112687044
-0.12533057 0.3395975 -0.6000834 -0.34196013 0.08078062 -0.12736784 -0.2369662 -0.11307178
-0.124560475 -0.046983056 0.63114566 -0.29777825 -0.06527223 0.34199268 -0.100405894 -0.25110006
-0.31587452 -0.05367968 0.18399498 -0.31266436 -0.20619434 -0.5989664 0.20127426 0.11061952
-0.20135133 -0.22269326 0.09439079 -0.3077761 -0.32383054 -0.38468465 -0.035588365 0.061526604
0.097112596 -0.12264632 -0.15962422 0.36618364 -0.0617082 0.15018162 -0.35767698 0.9275915
-0.090740055 0.1783813 -0.3445749 0.6121511 -0.5995694 0.04295562 -0.056559205 0.73636484
0.29331556 -0.14738588 -0.05838416 0.07851107 -0.32821503 0.013335503 -0.12089415 0.057333402
1.1134967 -0.15721726 0.28739333 -0.003947003 -0.33750153 0.49376443 0.65052235 0.25033942
0.3825551 0.42284712 0.31063566 0.1784176 -0.46850407 -0.19226669 0.048443057 0.23970193
-0.8678936 -0.026100649 0.23957358 -0.06376707 -0.012266129 -0.5669057 0.546268 0.35289267
-0.109012425 0.7442998 0.07651891 0.043296862 -0.13867947 -0.16095199 -0.4799672 0.42519882
0.11636544 0.6303875 -0.016774606 0.18871258 -0.014258683 -0.36699668 -1.0299312 -0.27758646
-0.5037566 -0.2962564 0.030349981 -0.27779457 -0.230755 -0.078034885 0.43090874 -0.28661755
0.1102808 0.0016686427 -0.37983772 0.6954969 -0.0088196155 -0.06408365 -0.42952093 -0.111799195
0.23936364 0.07393936 0.42574

norm_input.weight f4 [383]
00000000: 0f3a 5a3f 632e 423f 3d36 463f 43c5 5e3f
00000010: 41ac 133f 9a9f 523f 1128 423f 6e00 3c3f
00000020: 3103 663f ee86 4a3f 47e1 243f 0f41 3e3f
00000030: 5611 413f 0fcf 323f a57c 343f dc0a 1a3f
00000040: 2896 313f 2b22 253f 03d3 503f 928f 3e3f
00000050: c135 393f 578f 373f b17d 423f 098e 093f
00000060: 910b 323f 02e3 373f ff1d 343f e656 393f
00000070: c997 303f 4d8b 343f 6c1e 323f 2ce0 273f
00000080: a513 373f 795e 2c3f 9a9c 223f e16e 2d3f
00000090: 728b 213f ff7c 1b3f f400 233f 0666 183f
000000a0: a749 273f a545 1b3f da33 353f 7b1e 263f
000000b0: 87e7 383f 27d4 243f 2d6b 3a3f 181a 2a3f
000000c0: 294b 343f f863 293f ac27 2f3f 0909 303f
000000d0: d2d0 2d3f 0bce 223f 7fff 3d3f cc9e 2b3f
000000e0: 5c91 313f 66d5 173f 37dd 3e3f 4dcf 2c3f
000000f0: 2c90 263f c010 243f 73c9 2f3f 3ded 373f
00000100: c38c 253f d6a6 283f 7946 333f 6f7b 3c3f
00000110: fc2f 103f bc03 293f ccac 1d3f 5c82 3d3f
00000120: e138 2e3f be18 293f a729 213f 366c 243f
00000130: ad8a 0a3f b35e 1e3f e8f2 283f 997e 1e3f
00000140: 796c 263f 4ef6 1e3f afb5 373f 97e5 2c3f
00000150: 2df6 233f 6416 1a3f 00fa 233f 8d19 2c3f
00000160: 662b 173f 1ec5 103f 00da 263f 6260 333f
00000170: 3c29 113f eba8 223f 38d8 1c3f 0cf0 243f
00000180: a281 2e3f 6ae4 223f b265 363f e03b 333f
00000190: da24 193f a05a 103f 778d 323f 326f 2c3f
000001a0: 1844 273f a852 353f 05aa 253f fd7b 1b3f
000001b0: 5c32 193f ff78 3f3f 7f61 373f 8309 143f
000001c0: b3ad 363f b2f8 243f a737 2d3f 34a3 2f3f
000001d0: fd49 253f a102 1f3f 990f 353f 4903 3b3f
000001e0: 4d92 203f bade 343f fa5f 353f 7271 2d3f
000001f0: 3e57 3e3f d538 493f f89b 323f e939 343f
00000200: 35b3 5b3f 0cea 263f cabd 0f3f 788f 3a3f
00000210: 7bf4 2f3f d275 453f bdb6 163f ccb9 1a3f
00000220: d70e 463f 9f8a 303f 10d1 2f3f 4a1e 1d3f
00000230: edb4 233f 2823 253f 5501 213f a36d 3f3f
00000240: 7864 373f 6ebd 2b3f 6ab4 303f 3b4f 273f
00000250: ea7f 2d3f b5ef 313f 2ec7 2a3f cf80 283f
00000260: b42f 1f3f 7a22 143f 2554 293f a9fd 0c3f
00000270: c081 283f 996b 1f3f 67f8 1d3f 0ea8 233f
00000280: 74d9 2a3f affc 2a3f 147d 163f 57b9 353f
00000290: 9325 173f a370 0a3f f1be 1a3f d7fa 343f
000002a0: b738 293f 20e3 243f 4c28 1f3f 58ab 353f
000002b0: a2f1 243f 84a8 133f 38cd 233f 90ad 213f
000002c0: fa3c 1d3f e38a 363f f121 233f 0c5b 113f
000002d0: f25b 273f b1cf 173f 6155 263f e673 1b3f
000002e0: 8bee 123f e1bd 233f f4e4 2c3f 727e 273f
000002f0: 304e 223f fa25 363f 1404 433f e6be 403f
00000300: aae4 273f 1881 363f aa1d 223f 0117 293f
00000310: bc95 1c3f 5ac0 263f fbef 133f ebcb 293f
00000320: a3f1 283f ab85 203f 70a4 383f c887 1b3f
00000330: 49e7 203f 4ebb 183f e44c 203f d374 343f
00000340: 8959 113f 9f7b 353f 470a 323f 36a4 1b3f
00000350: a37b 263f 1fac 213f 2d5e 243f 4b90 223f
00000360: e22e 1b3f 0689 283f 56ff 163f 4d78 2a3f
00000370: 56f1 193f 4a02 3c3f 9ec6 1f3f ee6e 253f
00000380: 6c0a 033f afa6 183f 6c3a 173f c84f 233f
00000390: af84 1f3f 5059 193f ba30 133f ef72 1e3f
000003a0: 0acb 2b3f 978a 1b3f 910b 1c3f 6629 2f3f
000003b0: 3cb6 1c3f 74f9 203f e8bb 0f3f e844 313f
000003c0: a6fc 2c3f 8029 0a3f 1edc 2b3f e2b9 2f3f
000003d0: 078d 1d3f 552b 243f e1fe 1a3f 1ffe 0f3f
000003e0: 558d 173f ca74 1f3f 5eb2 173f 964b 353f
000003f0: 944f 043f d6b0 1b3f 9c76 203f e386 fe3e
0.8524484 0.7585203 0.7742651 0.8701975 0.57684714 0.8227478 0.75842386 0.73438156
0.8984862 0.79112136 0.64406246 0.7431802 0.7541708 0.69847196 0.7050269 0.6017282
0.69369745 0.6450526 0.8157198 0.7443782 0.72347647 0.71703094 0.7597304 0.53732353
0.695489 0.7183076 0.7035827 0.7239822 0.68981606 0.70525056 0.6957767 0.65576434
0.7151435 0.67331654 0.63520205 0.6774731 0.631034 0.60737604 0.6367333 0.59530675
0.6534676 0.60653144 0.70782244 0.6489026 0.7222828 0.6438622 0.7281979 0.66446066
0.70427185 0.66168165 0.6841991 0.68763787 0.6789676 0.63595647 0.7421798 0.6703918
0.69362426 0.59309995 0.745563 0.67503816 0.6506374 0.6408806 0.6866676 0.7184637
0.6466791 0.6587957 0.7002941 0.73625845 0.5632322 0.66021323 0.6159179 0.7402704
0.6805554 0.6605338 0.6295418 0.64227617 0.5411785 0.6186325 0.65995646 0.6191192
0.65009266 0.6209458 0.717616 0.67537826 0.6404751 0.60190415 0.64053345 0.6722649
0.59050596 0.56550777 0.6517639 0.70068944 0.56703544 0.63539 0.61267424 0.6442878
0.68166554 0.6362978 0.71248925 0.70013237 0.59821856 0.5638828 0.6974711 0.6735717
0.6533828 0.7082925 0.64712554 0.60736066 0.5984247 0.74794 0.7163314 0.57827014
0.71358794 0.6444198 0.67663044 0.68608403 0.6456602 0.62113386 0.70726925 0.7305189
0.6272324 0.70652354 0.70849574 0.6775123 0.7435187 0.78602344 0.6976924 0.70400864
0.85820323 0.6520088 0.5614897 0.72875166 0.6873242 0.77132905 0.58872586 0.60439754
0.77366394 0.6896152 0.6867838 0.6137434 0.63947946 0.6450677 0.6289266 0.7477667
0.7163768 0.6708592 0.6902529 0.6535527 0.67773306 0.6950639 0.66710174 0.65821546
0.62182164 0.5786511 0.6614402 0.55074555 0.6582298 0.62273556 0.61707157 0.63928306
0.6673806 0.66791815 0.58784604 0.7098593 0.5904171 0.5407812 0.60447603 0.7069525
0.66102165 0.64409065 0.62170863 0.70964575 0.644312 0.5767901 0.63985014 0.6315546
0.6142117 0.71305674 0.63723665 0.5677955 0.6537467 0.59301287 0.6497403 0.6072372
0.5739524 0.6396161 0.67536855 0.65427315 0.63400555 0.711517 0.761781 0.7529129
0.6558329 0.7129073 0.63326514 0.66050726 0.61165977 0.65137255 0.57788056 0.6632678
0.6599371 0.6270396 0.7212591 0.6075406 0.62852913 0.59660804 0.62617326 0.7049076
0.56777245 0.70891756 0.6954693 0.6079744 0.65032405 0.6315326 0.642062 0.63501424
0.6061841 0.6583408 0.5898336 0.66589814 0.60133874 0.7344099 0.6241244 0.6462239
0.5118778 0.5962934 0.5907352 0.6379361 0.62311834 0.59901905 0.57496226 0.61894125
0.6710669 0.60758346 0.6095515 0.68422544 0.6121557 0.62880635 0.561461 0.6924577
0.6757301 0.53969574 0.6713275 0.6864301 0.61543316 0.6412862 0.60545164 0.56247133
0.5920003 0.6228758 0.5925654 0.7081846 0.51683927 0.60816705 0.62680984 0.49712285

norm_input.bias f4 [383]
00000000: 4830 543c 5566 383c 93a8 9d3c e8e0 e5bc
00000010: f883 8bbc 02e3 07bd e11d 973c 5332 883c
00000020: 9fea 0ebc b06b 8dbc 1aca f93a 2aa4 283b
00000030: 0f5c 21bc 088d b2bb 4685 513b b4ff 603c
00000040: c681 04bb 98bf 36bc 304e fcbc 3231 3b3c
00000050: d78e 92bc 4cd6 63bb df89 10bb a649 42bc
00000060: cac5 72bc 9c8c bd3b a7e1 e63c eda4 5ebb
00000070: 5564 e03c fd83 8abc 27ab f03b 8610 803c
00000080: 9a66 64bb 2d02 9fba 776b 9e3c 7e55 3f3c
00000090: 3384 36bb 07f9 a83c cdc7 61bc a99e 9b3a
000000a0: 34c3 443c e2d7 663c bdd9 6238 6ba0 bc3b
000000b0: a397 973c 3d47 54bb 88d0 f13b 7864 893c
000000c0: cac6 633c 2e26 983c a7eb 513b 6a14 8e3c
000000d0: beb1 8d3b 4026 9b3b 60e6 3cbb 34e6 bbbc
000000e0: 5350 aa3c 098a 233c 3c24 83bc fb16 8a3b
000000f0: c5ba 843c ab90 c3bc c6cb ccbb d5fe d13c
00000100: 2adc 443b 1273 d03b 3e3e 373c bb34 b6bc
00000110: 36c1 633b d300 afbc c042 1bbc 36db b63b
00000120: e156 e73b f260 c13c 9eb7 2d3c a8a8 a2bb
00000130: a27e 813c 59ab f53c 278e 303c 4043 d7bb
00000140: 0809 a9bc e8fa 6cbc 6693 5abc 9e28 e4bc
00000150: bcf8 bebb 02d0 9c3c 3e21 e63a 272c 0fba
00000160: 31a8 28bc e0f8 183d 7a28 463b bf51 92bc
00000170: aafd 8e3c 1744 d53c 01cb f7bb 91e1 d33c
00000180: 07d1 23bb 6504 c53c dadf 543b a902 683c
00000190: fbef fb3b 2301 9b3c d012 753c 166c 68bc
000001a0: 0a6b f6bc b34c 673c 2844 eebb 6b38 ebbc
000001b0: 7675 f43a 62d9 ecbc 593e 923b c0b1 a8bc
000001c0: 7585 5cbc 2b21 2cbc 8f7d 72bc fd9d a03c
000001d0: fd9e 65bc 4263 67bc b55a 023c 3a52 e4bc
000001e0: 8a64 55bc ab73 84bc ad9e 11ba d585 993c
000001f0: ce6c 73bc 5b72 423c 572e aa3b 7d55 cabb
00000200: 76c5 873b d704 d53c eb47 20ba ada5 8d3b
00000210: 6113 813c fb66 8ebc 0448 82bc 8a3a 73bc
00000220: fcee 24bc 4433 98bc 68f3 063b a972 fa3b
00000230: 3a94 3dbc f329 cd3b 2f58 ebbb 4778 63bc
00000240: b7b5 8abc d4d1 4d3c c195 0d3b 57c8 923c
00000250: 459c 57bc ddc5 513a 5aab 37bb 743c afba
00000260: 3b0c 80bc 013f 943a 1f56 9f3c b4a5 50bc
00000270: 20f7 983c b2db 8abc 69ad 2ebd 7230 ddb9
00000280: 39d4 833b abfd 8cbc 6c17 a1bc fe6a 863c
00000290: ef07 863c 2371 b63b e30b 8bbc face bbbb
000002a0: d292 aebc af23 ab3b 09a5 1c3c 0d8c d03c
000002b0: 2f49 66bb 436e 8a3c cd19 43bc 4a06 2b3b
000002c0: f9dd 4abc 34ff cc3c e2d2 13bb 690d 00bd
000002d0: 1c86 3bbc 5c1e cebc e7e1 d63b 6fdb c4bc
000002e0: bcca bebc de9c 8f3c 2ed0 d13c 34b3 f0bb
000002f0: ffc0 2abc 4dda c13c 31d1 62bc 9ab8 9ebc
00000300: c83c 85bb eae7 ec3c e373 16bc 9a80 d7bc
00000310: dabe 483c 499b 30bc 34cc b03b c005 0d3c
00000320: d1e8 543b 992d 5b3c cfc2 a0bc 7e73 b7bc
00000330: 92cf 21bc e24f 5e3c ba5c ccb9 6f85 c03c
00000340: b127 8ebc 5572 913c a0b2 613c 0af7 c43c
00000350: 6a8d 97bc a5fe bf3c d06a 86bc 8120 41bc
00000360: 5df0 263c 3cfc eb3c 51a6 4c3c 9647 293b
00000370: 5d04 4abc 9458 a0bc a13d c63c 30c2 2abb
00000380: ec44 9c3c 8476 0cbc 74b7 b43b e1ae bebb
00000390: 9771 9b3c 13ea ba3a 775a 1b3c 88f1 da3c
000003a0: 9c21 93b9 e7d7 ddbb e97b b0bc 482f 23bc
000003b0: 8256 84bc d43c cdba 6eb5 953b e78d d13c
000003c0: 8b91 55bc bddd be3c 58f4 55bc fdcb 6c3c
000003d0: ffe6 e33b a1ac c8bc 926d 633c 82de 2cbb
000003e0: f4f2 81bc 0f9e b0bb a4c8 a0bc 1f91 d0bc
000003f0: 3ab8 823c 8613 a23b 849b 5c3b 5f34 aa3b
0.012950964 0.011254867 0.019245422 -0.028061345 -0.017030701 -0.033175476 0.018446865 0.016625559
-0.00872293 -0.017263263 0.0019057423 0.0025732615 -0.009848609 -0.005448941 0.0031970306 0.013732839
-0.0020218953 -0.011154078 -0.030799001 0.011425303 -0.017890377 -0.0034765182 -0.0022054834 -0.0118583795
-0.014817664 0.005784584 0.028183771 -0.0033972815 0.027391592 -0.01690864 0.0073446217 0.015632879
-0.0034851194 -0.0012131386 0.019338353 0.011678098 -0.0027849793 0.020626558 -0.013780546 0.0011872846
0.012009431 0.014089556 5.4085383e-05 0.005756428 0.018504923 -0.0032391094 0.007379595 0.01677154
0.0139023755 0.018572893 0.003203133 0.017343719 0.004324167 0.0047347844 -0.0028823838 -0.022936918
0.020790255 0.009981641 -0.016008489 0.0042141653 0.01620234 -0.023872694 -0.0062498776 0.025634209
0.0030038455 0.0063613737 0.011184273 -0.02224194 0.0034752614 -0.021362698 -0.009476364 0.005580331
0.0070599173 0.023605797 0.01060286 -0.004963953 0.015807454 0.029988931 0.010776079 -0.006569296
-0.02063419 -0.014464118 -0.013340807 -0.027851399 -0.0058279913 0.019142155 0.0017557514 -0.00054615963
-0.010294006 0.03734672 0.0030236528 -0.017861245 0.01745494 0.026033444 -0.0075620417 0.025864394
-0.0024996416 0.024049947 0.0032482059 0.0141607905 0.00768852 0.01892144 0.0149580985 -0.014185926
-0.030080337 0.014117408 -0.0072713085 -0.028713426 0.0018650729 -0.02891225 0.004462999 -0.02059257
-0.013459553 -0.010505955 -0.014800443 0.019606585 -0.014014957 -0.014122786 0.007956197 -0.02787124
-0.013024459 -0.016168436 -0.00055549556 0.018740574 -0.014857484 0.011868085 0.0051935124 -0.006174742
0.004143412 0.026003284 -0.0006114232 0.0043227286 0.01575631 -0.01738309 -0.01590348 -0.0148455
-0.010066744 -0.018579133 0.0020591859 0.007643063 -0.0115709845 0.0062611043 -0.007182143 -0.013883657
-0.016932352 0.012562234 0.0021604153 0.017917795 -0.013159816 0.0008002201 -0.0028025717 -0.0013369457
-0.015630832 0.001131028 0.019450245 -0.012734819 0.018672526 -0.016950462 -0.042645846 -0.000421885
0.0040231016 -0.017210802 -0.019664489 0.01640844 0.016361205 0.005567686 -0.016973441 -0.0057314606
-0.021310244 0.0052227597 0.009560832 0.025457406 -0.0035138836 0.01689828 -0.011908007 0.0026096278
-0.012382024 0.025024034 -0.0022556116 -0.03126279 -0.011445548 -0.02516096 0.0065576914 -0.024030415
-0.02329003 0.017530855 0.025611963 -0.0073455814 -0.01042199 0.023663664 -0.01384382 -0.019375134
-0.0040660836 0.028919179 -0.009182903 -0.02630644 0.012252534 -0.01077921 0.0053954367 0.008607328
0.0032487402 0.013377571 -0.019624142 -0.022393938 -0.009876149 0.01356885 -0.00038979 0.023501126
-0.01735291 0.017754713 0.013775498 0.024043579 -0.018500049 0.023436854 -0.016408354 -0.011787535
0.010189143 0.028806798 0.012490825 0.0025830022 -0.012330142 -0.019573487 0.024199309 -0.0026055686
0.019075833 -0.008573178 0.0055150334 -0.005819187 0.018975062 0.0014260433 0.009482018 0.0267265
-0.00028063066 -0.0067701223 -0.02154346 -0.009960003 -0.016154531 -0.0015658387 0.0045687472 0.02558036
-0.013035188 0.023299092 -0.013058744 0.0144529315 0.006955027 -0.024496378 0.013881104 -0.0026377742
-0.01586292 -0.005389936 -0.019626923 -0.025459824 0.015956987 0.004946175 0.003366203 0.0051942314

shared_base.0.weight f4 [256, 383]
00000000: 2031 95bb c725 6cbc 790e ca3b 008b 4a3c
00000010: 8e55 36bc 699c f53a d74f 52bc 522d 593c
00000020: f687 743c 7ac2 0abc 30a5 213c 90c0 d1bb
00000030: c236 adbc 1174 db39 ab12 92bb f4e9 82bc
00000040: db2e 623c 71b0 fdbc b1a3 c2bb 63ff 8ebc
00000050: 4ae7 3ebd 871f 313c b794 993c 1a23 cabc
00000060: 5279 363d 96e2 fc3b 8728 ef3c d4d5 8ebc
00000070: 9064 8ebb 95da 2c3d b22b 8bba 7cdc 903c
00000080: c897 28bc 72ae 06bd 36cc 063d 83bc a1bc
00000090: f900 e2bc 0d51 dc3c 9ca9 79bc debd 803c
000000a0: dcb9 e2bc 1a85 413c 04e4 cd3c c230 7dbc
000000b0: 70a3 7cbc d03c bf3c dcce e0bc d6b3 dc3b
000000c0: 0844 4a3d c6f7 57bc 4f04 48bc e3b2 343d
000000d0: 86b7 b23c 7e54 f3bb d619 9bbc 4f7c be3b
000000e0: 2917 033d 3a3f 833c 2efb 8bbc 7dc4 21bd
000000f0: b60f b03c 4d54 dfbc 2328 98bc de4b 01bc
00000100: f41f dc3c c94c f6ba f363 203b e516 ddbc
00000110: 8fa4 2ebd f5a4 52bc d6e1 d9bc 2634 f7bb
00000120: c8b7 673c 772c a8bc 23a8 f63c 5102 a6bc
00000130: 426d 623c fafe 32bd 15f0 013c b022 11bd
00000140: d5dc 823c 765a 9e3c 1445 833c 969e 96bb
00000150: 364f b93b 4e64 2ebc 9874 92bb 1eac ccb9
00000160: 05c0 edbc 571f 84bc 7441 1f3c fcba c23c
00000170: 6bcf 46bd 5b02 40bc 4851 923a dcd2 62bc
00000180: 8cf0 5a3c 3bb6 48bb 1875 65bc 63ec 8cbc
00000190: ff3a 8e3c d1f9 f13c 49ec 02bd 4e2c 49bc
000001a0: 8be8 d2bb 16c9 8fbc c65a 073d 6e15 583d
000001b0: 4c2f 24bd ef80 04bd c2c2 a83c 75dd 193d
000001c0: 1f63 f2bb abef 353d 6ed2 ebbc fe92 6ebb
000001d0: 526c f93c d6c6 6f3c cb4c 683d 5528 fe3c
000001e0: 630d 24bc 6224 2dbc 3aa3 ac3c b504 8abc
000001f0: c395 d339 c764 b0bc f62a 90bc f783 0d3d
00000200: ebac 393d b425 78bb 8c46 b03c bb39 8a3c
00000210: ae8d 18bd bc02 0fbc d06b 983c 1a7d 7abb
00000220: fa21 4c3c bbfa cabc cb81 213d b135 443c
00000230: 812e ae3c b68c 4e3d 54df f0bb 87e3 c53c
00000240: 3ecc ffbb 2089 3bbd a791 273d 6957 ba3c
00000250: 09b6 a03b 6b4a ebbc 9672 1ebd dae7 aebc
00000260: ba9b 643d 1084 81bc 3369 dcbb aac9 313d
00000270: 6273 debc 2d38 af3b d9e0 10bd 750e ad3c
00000280: 00b6 2bbc 65a8 ec39 82e8 35bd f90a e63c
00000290: 7d24 14ba 343b c33b 1107 523c ac9b a5bb
000002a0: 36cf 20bc 5b63 c13c 4639 bdbb d1bb 31bc
000002b0: 8d14 12bd ce9a abbb bdde 9f3b 19c3 29bd
000002c0: 4944 843c 14e4 673d ef38 1dbd ac3d d43c
000002d0: 15a6 80bb 9623 a93b eb25 bebc c5e1 813d
000002e0: a51a f2bb 1379 6d3c c2d6 c93c 59cc 01bd
000002f0: 920a 3a3d 6338 93bc 897f b23b 1fb5 003d
00000300: 82f4 f53a 41fd 433a bc7d 00bd b513 643b
00000310: a3de 213c 279f 9d3c 0345 81bc f6a3 6b3c
00000320: ed12 f73c 667f ac3c be24 e13c 14e0 d03c
00000330: fddb 713c 74da a13c e71c c43b bf3f adbd
00000340: f52d f4bb 1934 59bb 028d 0ebb ed70 903c
00000350: ee25 333b 654a 8f3a c849 2dbc 3ef9 943d
00000360: 093d 7b3d ff01 23bd ba0f 3cbd 42c0 37bd
00000370: 06d0 e13b a500 aa3c ae9a 0fbd 1692 513c
00000380: 9448 473d cbe3 ff3c 13b3 06bc d81b 95bc
00000390: 0a3f 913c 2fec 05bc dabb 89bc 66f6 f2bc
000003a0: e914 46bc 9005 07bd fb3d b4bc 1d7b a5bc
000003b0: d0b7 07bd c4bb 35bc 1ced 0a3a e0ee fbbb
000003c0: a497 33bd f1a9 f2bc f519 19ba 05ca 90bc
000003d0: 9292 263d a984 5c3c 2efa d5bc 931e f3bc
000003e0: 464e 3e3b be04 b53b 2c7e 34bc fdea 87bc
000003f0: 7c3a 38bc 6cdd d23a 9df9 1abd 4290 a93a
-0.0045529753 -0.014413304 0.006166276 0.012362242 -0.011128796 0.001873863 -0.012836418 0.013255434
0.014924994 -0.008469218 0.009866044 -0.006401129 -0.021144275 0.0004185741 -0.004457792 -0.015980698
0.0138051165 -0.030967923 -0.0059399237 -0.017455762 -0.046607293 0.010810739 0.01874767 -0.02467494
0.044549294 0.007717441 0.02919413 -0.017435946 -0.004345484 0.042200644 -0.0010617881 0.01768326
-0.010290094 -0.032881208 0.032909594 -0.01974321 -0.027588354 0.026894117 -0.015238192 0.015715536
-0.027676515 0.011811519 0.02513314 -0.015453519 -0.015419826 0.023344427 -0.027442388 0.0067353053
0.049381286 -0.013181632 -0.0122080585 0.044115912 0.021816026 -0.0074258437 -0.018933218 0.0058131586
0.03200451 0.01602136 -0.017087545 -0.039494026 0.021491867 -0.027261877 -0.018573826 -0.007891623
0.026870705 -0.0018791194 0.0024473637 -0.026988456 -0.042637404 -0.012856712 -0.026596945 -0.0075440584
0.014142938 -0.020529015 0.03010947 -0.020264776 0.013819994 -0.043700196 0.007930775 -0.03543347
0.015974442 0.019330245 0.01602415 -0.0045965416 0.0056551946 -0.010644032 -0.0044694655 -0.0003903815
-0.029022226 -0.016128225 0.009720195 0.023770802 -0.048537653 -0.011719312 0.001116314 -0.013844218
0.013363015 -0.0030626196 -0.014004968 -0.017202562 0.017362116 0.029538067 -0.03196362 -0.0122786295
-0.0064364127 -0.01755194 0.033045553 0.052754812 -0.04008417 -0.032349523 0.02060068 0.037564714
-0.00739707 0.04441802 -0.028786864 -0.0036403532 0.030447159 0.0146348085 0.05671386 0.031025091
-0.010012957 -0.010567756 0.021073926 -0.016847948 0.00040356637 -0.02153243 -0.01759861 0.03454968
0.045330923 -0.003786427 0.021518014 0.016873231 -0.03724449 -0.008728679 0.018606097 -0.003822154
0.0124592725 -0.02477776 0.03943042 0.011975692 0.02126241 0.05042716 -0.0073508415 0.024156345
-0.00780633 -0.04578507 0.04091039 0.022746759 0.004904513 -0.028722009 -0.038683496 -0.02135079
0.055812575 -0.015810043 -0.006726408 0.043405212 -0.027154628 0.005347273 -0.03537068 0.021125058
-0.010480404 0.0004513889 -0.04441119 0.028081404 -0.0005651189 0.0059579853 0.012819068 -0.005053958
-0.009815028 0.023606947 -0.00577465 -0.010848002 -0.03566413 -0.00523696 0.0048788474 -0.041445825
0.016145842 0.056613997 -0.038384374 0.025908314 -0.0039260485 0.005161713 -0.02321144 0.0634189
-0.00738843 0.014494198 0.024638537 -0.03168902 0.045420237 -0.017971223 0.0054473323 0.03142273
0.0018764886 0.00074763974 -0.03136991 0.0034801785 0.009879741 0.019240929 -0.015779978 0.014382353
0.030160392 0.021056842 0.02748334 0.025497474 0.014761922 0.019757487 0.0059848907 -0.08459424
-0.0074517676 -0.0033142625 -0.0021751528 0.017631972 0.002733584 0.0010932205 -0.010576673 0.07274102
0.061337505 -0.039796825 -0.045913436 -0.044861086 0.0068912534 0.02075226 -0.035059623 0.012791177
0.0486532 0.03123655 -0.008221406 -0.018201753 0.017730255 -0.008173986 -0.016813207 -0.029658508
-0.012089946 -0.03296429 -0.02200221 -0.020200307 -0.03313428 -0.01109213 0.0005299614 -0.007688388
-0.043845788 -0.02962205 -0.0005840355 -0.017674455 0.040667124 0.013459363 -0.026120272 -0.029677665
0.0029038354 0.005524247 -0.01101641 -0.016591543 -0.0112444125 0.0016087717 -0.037835706 0.0012936669

shared_base.0.bias f4 [256]
00000000: ca7f 153d 8fdf 0d3d 6711 35bc bac0 78bc
00000010: 6636 e73b 1151 2fbc 8126 8dbd d93d 75bb
00000020: 4434 ebbc 2552 af3a 8f41 dd3b 04a6 f13c
00000030: 9063 b23c 264a 373d e86a 97bc 58c1 a33b
00000040: f25f d93c fa42 743b 9cb7 8f3c a0cc 10bc
00000050: 6639 ab3b e6b9 c33c 8e1d fabc 55a2 873c
00000060: ccc0 053d 6ba3 9cbc e6d1 be3c 5f70 49bd
00000070: 0479 ba3c d7e8 1dbb 184b 343d b5cc c6bc
00000080: 2489 c03b b267 163c 4c8e a73b 60c4 1fbc
00000090: 3e73 2bbd 1d98 b23b 1fba 49bc 9497 3d3d
000000a0: d2c8 5cba 8724 583c 972c b63c 1fb2 203d
000000b0: b964 a03c a170 083c 0de8 1e3d 2099 a7bc
000000c0: 41b9 813c 1a05 13bd 271f 1f3d 3625 863c
000000d0: ec03 253d 42aa 58bd a3ef c8bc 8ad8 c93c
000000e0: 4988 ac3c ecdb b53c d571 063d 74e6 abbc
000000f0: 3542 ae3c b739 d63c aaa2 0c3d fa9e 16bc
00000100: a64e 463c 9ac8 703d 74bc e53c f603 e0bc
00000110: b0b8 87bb 829d 453b c459 2fbd 612c 923c
00000120: 1d96 c83c 42c5 fabc 785c 82bd d6f0 003c
00000130: 4c2f 05bc 75b0 da3c 9c70 e5bc 127c 92bc
00000140: ac72 35bd 2532 a8bc 6f7b b33c 2187 fd3c
00000150: 6f23 843c 73c4 15bd a481 f539 ee40 983c
00000160: 73b5 8d3c 5b79 353c 5142 413d bee7 dcb8
00000170: 6d64 f3bc 37ab 00bd 7387 c0bc b953 f93c
00000180: c3aa 033d a687 3f3c 3c3b 5db8 3a73 7bb9
00000190: cef6 dbbc 097c 363d f55c 073d 58cc f73b
000001a0: 8d8f 9d3c acab 81bc 1b25 1fbc 65af 143d
000001b0: a75c 373d e85a 8cbc 1d3b 84bd c986 5e3d
000001c0: 63cc 513c dfbd aa3c 6560 493c cf10 343d
000001d0: 98dc f6bc dc27 83bd 7e67 f83c d316 103d
000001e0: 4cb6 2b3b 363e 8cba d471 ef3b 3a9d 4d3c
000001f0: 9d25 ed3b 3978 e93c 5f8f a93c 0998 323c
00000200: 00f2 293b 71f2 3d3d 3283 5d3d 80e5 3dbc
00000210: 59c5 b3bc 2e3f 153d cf33 963c 7edf ebbc
00000220: 9458 6b3d 14d0 2bbc 64df 1c3d 78a8 193d
00000230: 07cf 7abc 1c2e a7bc e9a8 14bd fd75 ecbb
00000240: b0ac 173d 0bd8 603c fe19 c43c 7d59 b43c
00000250: adc6 083d ab15 3b3c 9193 67bc 8169 673c
00000260: d188 fd3c 97aa 15bd c45a a3bc 37ea 303c
00000270: 59d7 2ebd 3c99 26bc e0af 903b bb88 35bc
00000280: 7635 003d bbf8 2f3d fd2f 87bc 5a0b 5b39
00000290: 56ed 963c e4df 2bbb 5fb0 8f3a 8946 213d
000002a0: 9836 1e3d 13fc a8bc a0bb 2a3d 1ba8 3a3d
000002b0: 49a0 d33b fd45 293c f31f 69bd c727 3d3d
000002c0: 7614 56bc d231 a33c 8bfc 06bd 048a 4fbc
000002d0: 23ea 01bc d86f 973c 0c97 7e3c 92ec d33c
000002e0: 168d 3e3b ba3e 183d 7036 7d3b a374 2cbb
000002f0: c7f5 8f3b 40da 3f3c fde1 1c3d a4cf 013d
00000300: 7d59 103c 722b ca3b 9b2c e63c 0344 413d
00000310: 78f3 39bd 9f39 d9bc ff07 6e3d 4454 8dbc
00000320: cc99 bebd 771e 103d f137 703c 0229 df3c
00000330: 60eb 69bd 5b49 343c b11c 82bd 4839 f33c
00000340: a3ff 62bd 371b 07bd 6bb2 5d3d 4a79 ebbc
00000350: 75b4 1d3d a340 9c3c eeeb fe3c 7cb3 903b
00000360: 2bb7 e7bb bc84 68bd b94f 17bd 5608 6abc
00000370: 421d 54bd 24d1 af3c b8a4 5fbd bae1 593d
00000380: 50ce 933a 4e30 20bd 06e8 06bc f15a 243d
00000390: 6ac4 25bc b335 383d 166e 0d3d a312 8f3d
000003a0: 13bf 073d b437 0a3c 9391 bebc 212b 4cbc
000003b0: 2f7d a8bb 3c0e af3c fa22 cebc ebe3 ec3c
000003c0: 5b3d f93c 1681 7b3c f8d1 373c 89d0 8ebc
000003d0: c7a2 993c 7d11 b73c ded9 a3bc 4ba2 34bc
000003e0: 0649 4abc 705e 65bc d7c6 043d fcf7 2cbd
000003f0: a28e 5d3d 0986 dcbc a7e0 43bc 82ff 80bd
0.036498822 0.03463703 -0.011051512 -0.015182668 0.0070560453 -0.01070048 -0.0689211 -0.0037420897
-0.028711446 0.0013375921 0.0067522 0.029498108 0.02177599 0.044748448 -0.018483594 0.0049974136
0.026535008 0.0037271366 0.017543606 -0.008837849 0.0052253483 0.023892354 -0.03053167 0.016556898
0.03265457 -0.019120893 0.023293447 -0.04917943 0.022762783 -0.0024095082 0.044016927 -0.024267534
0.0058757234 0.009179996 0.0051133987 -0.009751409 -0.04185795 0.005450262 -0.012312441 0.046287134
-0.00084222585 0.013192303 0.022238059 0.03923237 0.019579278 0.008327634 0.03879552 -0.020458758
0.015835406 -0.035893537 0.03884807 0.016375165 0.040286943 -0.052896746 -0.02452833 0.024639387
0.02106108 0.022199593 0.032823402 -0.020983912 0.021271804 0.026150567 0.034334816 -0.009193176
0.012103712 0.05878506 0.028043963 -0.027345639 -0.0041418895 0.0030153696 -0.042810217 0.017843427
0.024485642 -0.030611638 -0.06365293 0.00786992 -0.008128952 0.02669547 -0.028007798 -0.017881427
-0.044298813 -0.020531723 0.021909444 0.030948224 0.016130177 -0.0365643 0.0004682663 0.018585648
0.017298436 0.011076297 0.047182385 -0.00010533583 -0.029710973 -0.031413283 -0.023502087 0.03043543
0.032145273 0.011690056 -5.2745672e-05 -0.0002398015 -0.026851084 0.044551883 0.033047635 0.0075622015
0.01923349 -0.01582893 -0.0097134365 0.03630008 0.044766095 -0.017133191 -0.064565875 0.05432776
0.012805077 0.02084249 0.012291049 0.043961342 -0.030134484 -0.06404087 0.030322786 0.035178017
0.0026201187 -0.0010699693 0.0073072705 0.012549693 0.00723715 0.02849971 0.020698247 0.010900506
0.0025931597 0.04637379 0.054080196 -0.011590362 -0.021944689 0.036437206 0.018335251 -0.028793093
0.05745752 -0.010486621 0.03829898 0.03751418 -0.015308148 -0.020407729 -0.036293898 -0.0072162137
0.037029922 0.013723384 0.023938175 0.022015328 0.033392597 0.01141874 -0.014134304 0.014124275
0.030949028 -0.03653964 -0.019940741 0.010798029 -0.04268584 -0.01016837 0.004415497 -0.011079962
0.031300984 0.042961817 -0.016502375 0.00020889696 0.018423717 -0.0026225979 0.0010962597 0.03937391
0.038626283 -0.02062801 0.04168284 0.045570474 0.0064583165 0.010331628 -0.056915235 0.046180513
-0.013066402 0.019921217 -0.032955687 -0.012667183 -0.007929358 0.018485948 0.015538942 0.025869641
0.0029075793 0.037169196 0.0038637184 -0.0026314638 0.0043933126 0.01170975 0.038301457 0.031692162
0.008810398 0.00616973 0.028097441 0.047184 -0.045398206 -0.026516734 0.058113094 -0.017252095
-0.09306678 0.035185304 0.014661775 0.027241234 -0.057109237 0.011003817 -0.06353129 0.0296904
-0.055419575 -0.03298494 0.05412523 -0.028744359 0.038502175 0.01907379 0.03111836 0.0044159275
-0.007071396 -0.05676721 -0.036941264 -0.014284214 -0.051785715 0.02146203 -0.054600447 0.053193785
0.0011276696 -0.039108567 -0.00823403 0.04012579 -0.01011763 0.044973087 0.034528814 0.069859765
0.033141207 0.008436132 -0.023262775 -0.012461455 -0.005141876 0.021369092 -0.025163162 0.028917274
0.030424764 0.015350601 0.011219494 -0.017433422 0.018754376 0.022347206 -0.020001348 -0.011025022
-0.012346512 -0.013999566 0.03241619 -0.042228684 0.054091103 -0.026919382 -0.011955417 -0.06298734

shared_base.1.weight f4 [256]
00000000: 2e0e 313f 2628 1c3f b785 233f 6401 473f
00000010: 3387 363f 90fa 303f f1a6 803f c872 343f
00000020: 7aa6 5c3f a908 293f 9e29 673f 3791 273f
00000030: a5bb 213f a010 fd3e de3f 423f 0273 2c3f
00000040: 9e49 353f 8167 3b3f cb0a 173f c210 6e3f
00000050: 9a66 273f bbf0 123f 67d3 533f fc73 343f
00000060: 160c dd3e 48c8 463f ad66 273f fdbe 5b3f
00000070: ed0d 193f 6826 3c3f 7c90 3a3f 2691 803f
00000080: cd81 5b3f f6e6 403f 1e49 433f dd2e 403f
00000090: 859a 633f 50a7 3e3f de90 563f 877f 1f3f
000000a0: ce77 533f fe3b 653f 0148 343f a67e 1d3f
000000b0: dc9e 3e3f 4079 4e3f 7eb4 2d3f 488a 4a3f
000000c0: 55f9 413f 1d32 283f fa86 163f 5eb2 033f
000000d0: 5d64 1a3f 2079 703f f276 523f 7216 563f
000000e0: c663 3a3f 0fdf 453f d67d 1c3f 1500 543f
000000f0: 2788 303f c402 1b3f 968a 393f 8736 2c3f
00000100: 7586 143f 6991 153f 8cd2 2e3f 97aa 703f
00000110: fb28 353f d2c5 463f 257a 3a3f 77ef 273f
00000120: 708e 343f 955a 4c3f f0dd 713f d0e9 583f
00000130: 5c48 4f3f e2a4 1a3f 2641 503f 8fdb 463f
00000140: 03d4 653f 263c 463f 1aaf 233f b041 093f
00000150: b89b 343f 539d 5e3f ad59 8b3f 87f8 5d3f
00000160: 81bf 093f dee5 213f b5e5 453f 99ee 493f
00000170: d8c0 583f f690 553f 4476 673f bb7b 1c3f
00000180: 7aed 293f 1f25 273f 8943 403f 0cbb 483f
00000190: 46c6 5e3f 5508 243f 4bdf 2b3f 0356 2d3f
000001a0: 5863 213f 1622 553f 1917 283f 9b6d 133f
000001b0: da12 203f 2ec2 3b3f 06b3 613f beac 053f
000001c0: 5b5d 213f 4643 4b3f 7376 4c3f eace 3c3f
000001d0: eab7 3b3f 9b1a 873f 941c 473f 7948 f53e
000001e0: 6432 263f 5d16 2d3f 711f 373f 9430 373f
000001f0: 874d 3c3f d6e1 373f 551c 2f3f 1d6e 723f
00000200: d7b7 203f f059 1d3f e9c9 283f e4a7 8d3f
00000210: e6ff 223f 5e95 243f 2b8a 3b3f b528 603f
00000220: 6444 1f3f 7d5d 203f 1a1b 463f 2152 213f
00000230: 8ab8 303f 70d0 3e3f 6974 5f3f 12ba 2a3f
00000240: 726d 403f a54c 423f a2e0 113f 843a 493f
00000250: e93b 223f 8527 643f 3492 5d3f 1fe6 363f
00000260: 560e 153f 1941 633f 83c9 323f 8056 473f
00000270: 7342 593f c62a 643f b262 383f c7bf 4b3f
00000280: d66a 2a3f b364 1f3f 1957 483f 4d3a 323f
00000290: adfd 1a3f 2188 253f 1ce9 273f ee62 0f3f
000002a0: 54ab 303f 511b 533f e8d7 1c3f f815 0b3f
000002b0: bade 173f 0eaa 4e3f 7294 6d3f defe 123f
000002c0: 7ce4 443f f26c 263f c7bb 893f 9a5c 393f
000002d0: 5dc8 1f3f 8b45 2d3f 4025 163f f39e 083f
000002e0: 53fb 243f 7fc0 423f c626 2c3f eae2 413f
000002f0: 1e90 4a3f bf73 393f ca67 143f c676 243f
00000300: 15a2 333f dcd4 413f 32aa 2a3f 1b20 1d3f
00000310: c119 6f3f dab0 583f 5d87 1b3f f397 243f
00000320: ebed 7c3f 10db 2d3f d94d 203f b627 163f
00000330: 13b1 653f d673 3b3f 354d 6e3f 70c8 0d3f
00000340: 5432 613f edc7 583f 3ff9 293f 3eb1 543f
00000350: d524 213f 1aaf 0e3f 87c2 2f3f 40a4 2e3f
00000360: 9538 4a3f 4ca7 7e3f 99f2 523f 9b78 2c3f
00000370: 265a 5e3f 202a 453f f670 6a3f 1347 063f
00000380: 5d83 3f3f ec33 453f 7155 273f 5997 1e3f
00000390: f05f 463f eca5 093f 3a52 143f b326 fc3e
000003a0: 2de8 273f 90d8 1a3f 2379 793f eee5 6f3f
000003b0: 0982 233f 5544 123f 20bc 763f 41f0 173f
000003c0: 1c1f 553f d641 563f 158f 293f 4d4a 463f
000003d0: e69e 3d3f d900 5a3f 30e8 693f 7a62 173f
000003e0: 4281 253f f1fb 543f 899b 223f 4161 633f
000003f0: de9d 273f 900b 843f c1db 743f 1c7e 6b3f
0.6916226 0.6099876 0.6387591 0.77736497 0.7130005 0.6913233 1.0050946 0.7048764
0.86191523 0.6602884 0.9029788 0.65455955 0.6317695 0.49426746 0.75878704 0.6736299
0.70815456 0.7320481 0.59000844 0.9299432 0.6539093 0.57398576 0.8274445 0.7048948
0.43173283 0.77649355 0.65391046 0.858383 0.59786874 0.73496103 0.72876716 1.0044296
0.85744935 0.7535242 0.7628344 0.7507151 0.88907653 0.7447405 0.838148 0.62303966
0.8260468 0.89544666 0.7042237 0.61521375 0.7446115 0.8065376 0.67853534 0.7911725
0.75771075 0.65701467 0.5879971 0.5144404 0.6030939 0.9393482 0.82212746 0.83628
0.7280849 0.77293485 0.6112951 0.82812625 0.6895775 0.60551095 0.7247709 0.672707
0.58017665 0.58425003 0.6829002 0.940103 0.70765656 0.776456 0.7284263 0.6559977
0.7052984 0.7982572 0.94479275 0.8473177 0.80969787 0.6040784 0.8134941 0.7767877
0.8977663 0.7743553 0.6393906 0.53615856 0.7055011 0.8695881 1.0886742 0.8670735
0.53807837 0.63241374 0.7730363 0.78879696 0.84669256 0.8342432 0.90414834 0.611263
0.66377985 0.6529102 0.7510305 0.7841041 0.8702129 0.64075214 0.67137593 0.6770937
0.6304221 0.83255136 0.65660244 0.5758912 0.62528765 0.7334317 0.88163793 0.5221671
0.63033074 0.79399526 0.7986824 0.73753226 0.73327506 1.0554994 0.7777798 0.47906855
0.6492064 0.6761225 0.7153235 0.715585 0.735558 0.71828973 0.68402606 0.9469927
0.6278052 0.6146536 0.6593309 1.1066861 0.6367172 0.64290416 0.732577 0.87562114
0.6221373 0.6264265 0.77385104 0.63015944 0.69031584 0.745368 0.87287 0.6669017
0.75167 0.758982 0.5698339 0.7860491 0.63372666 0.891228 0.86551213 0.71444887
0.58225 0.88771206 0.6983873 0.77866364 0.8486702 0.8912777 0.720256 0.79589504
0.6656927 0.6226303 0.782579 0.6962021 0.6054333 0.6466084 0.6559007 0.5601033
0.69011426 0.82463557 0.61266947 0.54330397 0.5932423 0.8072823 0.92804635 0.57420146
0.7691114 0.6500999 1.076043 0.72406924 0.62415105 0.6768424 0.5865059 0.5336754
0.6444599 0.76074976 0.67246664 0.7573687 0.79126155 0.7244224 0.5797087 0.64243734
0.7016919 0.7571542 0.6666595 0.61377114 0.9339867 0.84644854 0.6075342 0.64294356
0.98800534 0.6791239 0.62618786 0.58654344 0.8972332 0.73223627 0.9308656 0.5538397
0.8796742 0.8468006 0.66395944 0.8308295 0.62946826 0.55735934 0.686562 0.68219376
0.7899259 0.99474025 0.82401425 0.6737153 0.86856306 0.770174 0.91578615 0.524522
0.7480982 0.7703235 0.6536475 0.6194969 0.7749014 0.537688 0.5793797 0.49248275
0.6558865 0.604867 0.97450465 0.9371022 0.6387029 0.57135516 0.96380806 0.59350973
0.83250594 0.8369421 0.6623395 0.77457124 0.74070585 0.85157543 0.91369915 0.5913464
0.64650357 0.8319693 0.6351858 0.8882027 0.6547526 1.0316029 0.9564782 0.919893
